checkpoint.pth (torch_old, 8820 bytes, 6 tensors)

fc1.weight f4 [40, 37]
0	0xbd947860	-0.07249522
1	0x3e62e2e7	0.22156869
2	0xbdba5327	-0.09097891
3	0xbcd41c7c	-0.025892489
4	0xbda3dab2	-0.08000697
5	0x3f2096fc	0.62730384
6	0xbf10b577	-0.56526893
7	0xbf1b4782	-0.6065599
8	0xbf0fdc56	-0.5619558
9	0xbfbed952	-1.4910071
10	0xbd590d99	-0.052991483
11	0x3d7e43d8	0.06207642
12	0xbde162d0	-0.11005175
13	0x3db97ae4	0.09056643
14	0xbe28e6eb	-0.16494338
15	0x3d12d375	0.035846192
16	0x3d371231	0.044695083
17	0x3ddb0ead	0.106961586
18	0x3e66aa6e	0.22525951
19	0x3decb901	0.11558724
20	0x3e4e41c4	0.20142275
21	0x3daa4109	0.08313186
22	0x3e3181e6	0.17334709
23	0x3e399971	0.1812494
24	0xbdab906e	-0.08377157
25	0x3d49b077	0.049240556
26	0x3e352cf8	0.17692935
27	0x3e2c03a7	0.16798268
28	0x3e7e7d3c	0.2485246
29	0x3e9a2103	0.3010331
30	0x3e6196c0	0.22030163
31	0x3e81dd26	0.25364035
32	0x3e11d768	0.14242327
33	0xbdd0aca6	-0.1018918
34	0x3d29e8ad	0.041481663
35	0x3e54c475	0.20778067
36	0xbcd5e58e	-0.026110437
37	0xbde5e2ca	-0.11224897
38	0x3d8ccc27	0.068748765
39	0x3b920fed	0.004457465
40	0xbe14729c	-0.14496845
41	0x3d0b0d26	0.033948086
42	0xbd1f545d	-0.038898814
43	0x3e60c463	0.21949916
44	0x3e2a2b93	0.16618185
45	0x3e2a8947	0.1665393
46	0x3e578464	0.21046597
47	0x3e84ae81	0.25914386
48	0x3e4c5a66	0.1995636
49	0x3e224051	0.15844847
50	0xbe92af7e	-0.28649515
51	0x3e315cb5	0.17320521
52	0xbde0825b	-0.10962363
53	0x3ace1e72	0.0015725626
54	0x3e3d87ed	0.18508883
55	0xbd67102b	-0.056411903
56	0xbd8ea262	-0.06964566
57	0x3edb9e24	0.4289409
58	0xbdf669b8	-0.12031883
59	0xbeb5c051	-0.35498288
60	0xbba13883	-0.004920067
61	0x3f211d6f	0.6293554
62	0xbe15d488	-0.14631855
63	0xbe118542	-0.1421099
64	0x3e2f984e	0.17147943
65	0xbdf512e5	-0.119664945
66	0xbe7d3307	-0.24726497
67	0x3e75ed03	0.24016194
68	0xbebcf354	-0.36904395
69	0xbe4e5577	-0.2014979
70	0x3dbefc23	0.09325435
71	0x3f7287e3	0.94738597
72	0xbe7b8d38	-0.2456559
73	0xbd603d4d	-0.05474596
74	0xbef7163b	-0.48259148
75	0xbce1c9b3	-0.027561998
76	0x3eea12a2	0.4571734
77	0xbe1817f8	-0.14852893
78	0xbe45bf77	-0.1931132
79	0xbf5b9489	-0.8577352
80	0x3e4ad5c5	0.19808109
81	0x3e91b158	0.28455615
82	0x3ea0ce4b	0.3140739
83	0x3ddabb2a	0.1068023
84	0x3dd4dc16	0.103935406
85	0x3dfa7ab4	0.12230435
86	0xbe7ea227	-0.24866544
87	0xbe0897b8	-0.13339126
88	0x3a24fb10	0.0006293515
89	0xbec1d77e	-0.3785972
90	0xbcd72e11	-0.026267083
91	0x3e27ee5d	0.16399522
92	0x3e32e391	0.17469622
93	0x3d0deb4c	0.034648225
94	0xbb6794fb	-0.0035336602
95	0x3dedc092	0.116089955
96	0xbd494ac3	-0.049143564
97	0xbe9cb741	-0.30608562
98	0xbdda1ed3	-0.106504105
99	0xbf15a4da	-0.5845467
100	0x3dc595b1	0.09647692
101	0xbe841cb3	-0.25803146
102	0x3f0a2ee4	0.539778
103	0x3e20c292	0.15699223
104	0x3ddadc57	0.10686558
105	0xbe603ac9	-0.21897425
106	0xbdfa413e	-0.12219475
107	0x3e0f2425	0.13978632
108	0xbe718393	-0.23585348
109	0xbe821fe3	-0.25414953
110	0x3e1e71c0	0.1547308
111	0x3d7799a2	0.06044925
112	0x3b01c41e	0.0019800733
113	0xbe51dd4c	-0.20494574
114	0x3e4430e4	0.19159275
115	0x3dc9e3eb	0.09857925
116	0xbf1a4787	-0.6026539
117	0x3dc2967d	0.095013596
118	0x3d6ffb9a	0.058589555
119	0x3f1e9051	0.6193896
120	0x3e9ab877	0.3021886
121	0xbdd6c0f1	-0.104860194
122	0xbe08be4c	-0.13353842
123	0x3e88a50a	0.26688415
124	0x3d2a5edc	0.04159437
125	0xbdb56170	-0.08856475
126	0xbe8c9163	-0.2745467
127	0xbdc48e94	-0.09597507
128	0x3ed35816	0.41278142
129	0x3e8c34c4	0.27384007
130	0x3eeaa078	0.45825553
131	0xbcba4661	-0.022738637
132	0x3d4f171f	0.05055916
133	0x3c8d5e4e	0.017256882
134	0xbe90ba32	-0.28267056
135	0xbdccd9a4	-0.10002449
136	0xbe886d97	-0.2664611
137	0xbdb32ed2	-0.08749165
138	0x3edee3c4	0.43533146
139	0xbde353fa	-0.11100002
140	0x3f0ab8f1	0.5418845
141	0x3e89a0fa	0.26880628
142	0xbe1446a9	-0.1448008
143	0xbe27bc3d	-0.16380401
144	0xbc22bc45	-0.009932582
145	0xbe9a06d1	-0.30083326
146	0x3e076663	0.13222651
147	0xbd802d8b	-0.06258687
148	0xbd421db1	-0.047391597
149	0xbe8ca867	-0.2747223
150	0xbe54d7a6	-0.20785388
151	0xbe7c8808	-0.24661267
152	0x3dbddf9c	0.09271166
153	0x3deda01e	0.116028056
154	0x3dbc7991	0.092028745
155	0x3eb2f561	0.34952834
156	0xbe2f0ea1	-0.17095424
157	0xbebab359	-0.36464956
158	0x3de02be5	0.10945872
159	0xbd1b9c4a	-0.037990846
160	0x3d88a289	0.06671626
161	0x3d895508	0.067056715
162	0xbeec76ab	-0.46184286
163	0x3e6218f3	0.2207983
164	0xbce50504	-0.027956493
165	0x3e12c9ed	0.14334841
166	0xbde5f1d7	-0.11227768
167	0xbe0758a9	-0.13217415
168	0x3e89aa55	0.26887766
169	0xbc8b7675	-0.017024258
170	0xbe2c2417	-0.16810642
171	0xbe7dc091	-0.2478049
172	0xbf231a61	-0.63712126
173	0x3e39e859	0.1815504
174	0xbf005954	-0.50136304
175	0xbebb662e	-0.36601394
176	0xbe812b4e	-0.2522835
177	0xbf08b384	-0.5339892
178	0x3ecbe7b0	0.398252
179	0xbe6c8d60	-0.23100805
180	0xbf00390e	-0.5008706
181	0xbbdca90c	-0.006734019
182	0xbf8b8d29	-1.0902454
183	0xbf05e2e5	-0.5229934
184	0x3d5e2b60	0.054240584
185	0xbe1d7c15	-0.15379365
186	0xbe9b7c46	-0.3036825
187	0x3e139eb1	0.14416005
188	0xbd2cba61	-0.042169932
189	0xbe16af82	-0.14715388
190	0xbec146c3	-0.377493
191	0xbf0136e2	-0.5047437
192	0x3ea6cfd9	0.3258045
193	0x3e266271	0.1624849
194	0xbf055b06	-0.52092016
195	0x3ed4d61a	0.41569597
196	0xbea36279	-0.31911066
197	0xbec441c3	-0.38331422
198	0xbdc412c7	-0.09573894
199	0xbe989c90	-0.29806948
200	0xbe0f7b99	-0.14011993
201	0xbe45c0ab	-0.19311778
202	0x3d09c291	0.03363282
203	0xbcb6f07e	-0.022331472
204	0xbe85beba	-0.26122075
205	0x3debe442	0.11518146
206	0xbe970c45	-0.29501548
207	0xbcab56fb	-0.020915499
208	0xbe3cdcfb	-0.18443672
209	0x3df41f28	0.11920005
210	0x3d911c95	0.0708553
211	0xbe63ff2b	-0.22265308
212	0x3e38688f	0.18008636
213	0xbf0683a3	-0.5254461
214	0xbdcc01cd	-0.09961281
215	0x3e824f1b	0.25450978
216	0x3d1c5e86	0.038176082
217	0xbe57b4a7	-0.21065007
218	0xbf07e16e	-0.53078353
219	0x3de2feac	0.11083731
220	0x3d0aa3a1	0.033847455
221	0x3d15e6d1	0.036597077
222	0x3c9b861f	0.018984852
223	0xbdbcb0dc	-0.09213421
224	0xbd996151	-0.07489265
225	0x3d6c3eb2	0.05767698
226	0xbe7763dd	-0.24159189
227	0xbf0a7f21	-0.54100233
228	0x3e37a807	0.17935191
229	0x3e872d7e	0.26401895
230	0x3dcbd374	0.09952441
231	0x3f08899e	0.5333499
232	0xbdd2a67a	-0.10285659
233	0xbdc856f7	-0.09782212
234	0x3d2b097e	0.0417571
235	0xbe423f5b	-0.1896948
236	0xbe1083d8	-0.14112794
237	0x3eb4c7b1	0.35308602
238	0xbeaa5085	-0.33264557
239	0xbefee7a8	-0.49786115
240	0xbdd417c7	-0.10356098
241	0xbf5b1ed8	-0.8559394
242	0xbe303d8f	-0.17210983
243	0x3c545cd3	0.012961584
244	0xbdae15f8	-0.08500284
245	0x3ddb8fdd	0.10720799
246	0x3b1da5d8	0.002405515
247	0x3e8de98a	0.2771724
248	0xbddc7177	-0.10763829
249	0xbeaf07a6	-0.34185523
250	0xbeb7a6e4	-0.35869515
251	0xbf42d500	-0.7610626
252	0xbd9b9f32	-0.075987235
253	0xbb271603	-0.0025495298
254	0xbd95b482	-0.0730982
255	0xbdd95bd5	-0.10613219

fc1.bias f4 [40]
0	0x3e4fcf3f	0.20293902
1	0x3e8e2acf	0.27767035
2	0xbe323c56	-0.17405829
3	0x3d18da6c	0.03731768
4	0xbc89cd0c	-0.016821407
5	0xbd468573	-0.04846711
6	0x3be83ee2	0.0070875743
7	0xbc9192b1	-0.017770143
8	0x3e2e179d	0.17001195
9	0xbd90f79a	-0.07078476
10	0xbe09f4d9	-0.13472308
11	0xbd8a0ae2	-0.06740357
12	0x3c8ff694	0.017573632
13	0xbea00434	-0.31253207
14	0x3e2ab9b0	0.16672397
15	0xbe88a691	-0.2668958
16	0xbd57d012	-0.052688666
17	0x3c15171f	0.009099751
18	0xbdc0ae5a	-0.09408255
19	0xbd8dfe40	-0.0693326
20	0xbd3ed4cb	-0.046589654
21	0xbd66a08e	-0.05630546
22	0x3e450b3e	0.1924257
23	0xbde675ef	-0.11252963
24	0x3d88089a	0.066422656
25	0x3d32fdb4	0.04369898
26	0xbdb49a28	-0.088184655
27	0xbd0a5b9d	-0.033778775
28	0xbe01873e	-0.12649247
29	0xbe2ceae4	-0.16886479
30	0xbe80f19c	-0.25184333
31	0x3d125c96	0.035732828
32	0xbe57f949	-0.21091188
33	0xbc52d34e	-0.012867762
34	0x3de48726	0.1115859
35	0xbeb59324	-0.35463822
36	0x3d4483f1	0.04797739
37	0xbe470826	-0.19436702
38	0x3e502103	0.20325093
39	0x3e187d48	0.14891541

fc2.weight f4 [10, 40]
0	0xbe14cbc6	-0.14530858
1	0xbcc6dfba	-0.024276603
2	0xbf3e4f85	-0.7434009
3	0xbed91ea6	-0.42406195
4	0x3ec5fc18	0.38668895
5	0x3e0bc504	0.13649374
6	0xbda2bb07	-0.07945829
7	0x3cab04fe	0.020876404
8	0xbe8f3609	-0.27970913
9	0x3e6d4b6f	0.23173307
10	0xbe0fc662	-0.14040521
11	0x3e496eff	0.19671248
12	0xbe2d8427	-0.16944943
13	0xbd31f6d6	-0.04344829
14	0x3e088764	0.13332897
15	0xbcf4377c	-0.029811613
16	0xbcb0487f	-0.021518944
17	0xbe1a6427	-0.15077268
18	0xbe344d01	-0.176075
19	0xbe70707b	-0.23480408
20	0xbe4b26f2	-0.19839075
21	0xbee540bd	-0.44775954
22	0xbe2bf5a1	-0.16792919
23	0xbdb02287	-0.086003356
24	0xbe23c0ca	-0.15991512
25	0x3e91c424	0.28469956
26	0xbe451aa6	-0.19248447
27	0xbb97c123	-0.004631178
28	0x3e644ec7	0.22295676
29	0xbeabbd94	-0.33543074
30	0x3e31f397	0.17378078
31	0xbe243890	-0.16037202
32	0xbe3a399a	-0.18186036
33	0x3ded3b4c	0.115835756
34	0xbf3b7911	-0.7323161
35	0xbea8c18f	-0.32960173
36	0xbc5b44ed	-0.013383132
37	0xbd04ce96	-0.03242358
38	0x3e8dcac4	0.2769376
39	0x3da4cc98	0.08046836
40	0xbe17cae4	-0.1482349
41	0xbee7b404	-0.4525453
42	0x3ecdfc08	0.40231347
43	0x3cea76b8	0.028621063
44	0xbd2b2a1c	-0.041788206
45	0xbea0bbc0	-0.31393242
46	0x3dd4c98b	0.10390004
47	0xbea678bf	-0.32513997
48	0x3c84b7bd	0.016200894
49	0xbdf436b0	-0.11924493
50	0x3d917797	0.07102888
51	0xbe87da88	-0.26533914
52	0xbc9760a0	-0.018478692
53	0x3e3502a1	0.17676784
54	0xbed12ae9	-0.4085305
55	0xbdacb52b	-0.084329925
56	0x3dd8f80b	0.105941854
57	0xbe7de87b	-0.24795716
58	0x3e3d9d3d	0.18517013
59	0xbe81abbd	-0.25326338
60	0xbf5e6114	-0.8686688
61	0x3efd8f77	0.49523517
62	0xbe249ec2	-0.16076186
63	0xbd3a4591	-0.0454765
64	0x3de89e18	0.11358279
65	0x3e72cc8c	0.23710841
66	0x3eac2ad5	0.33626428
67	0xbeed367d	-0.46330634
68	0xbe83e748	-0.2576239
69	0xbe4d68bc	-0.20059484
70	0xbe03d846	-0.1287547
71	0xbe93dbf3	-0.28878745
72	0x3e80161d	0.2501687
73	0x3e8d66ff	0.27617642
74	0xbe53dc93	-0.20689611
75	0x3f0513df	0.51983446
76	0xba74d202	-0.0009339155
77	0xbd6a4351	-0.057193104
78	0xbe3a8970	-0.18216491
79	0xbed1c591	-0.40971044
80	0xbe36beb1	-0.1784618
81	0xbdb52ca4	-0.08846405
82	0x3c060da6	0.008181965
83	0xbdbe8ea1	-0.09304548
84	0xbdea53f8	-0.11441797
85	0x3f03d6e5	0.5149978
86	0x3e5b2661	0.21401359
87	0x3dad7ce4	0.084710866
88	0xbd01b321	-0.03166497
89	0x3d7fa67a	0.062414624
90	0x3da91f00	0.08257866
91	0x3e390dc5	0.18071659
92	0x3e46743a	0.19380274
93	0x3e9f6417	0.3113105
94	0xbe6f24c0	-0.23353863
95	0xbe7c1fce	-0.24621508
96	0x3d1ac7c0	0.037788153
97	0x3ed6c59f	0.41947648
98	0xbe8e53f7	-0.27798435
99	0x3d8c13ac	0.068396896
100	0x3db9a5bb	0.09064814
101	0xbddf67c7	-0.10908466
102	0xbec62cb4	-0.3870598
103	0xbf11edfe	-0.5700377
104	0x3e15a028	0.14611876
105	0x3d2bde48	0.04196003
106	0xbe7ba588	-0.24574864
107	0x3ccda9d4	0.025105394
108	0x3d9f45e8	0.077770054
109	0x3d801202	0.06253435
110	0x3ea6e84f	0.32599112
111	0x3e4e6fab	0.20159785
112	0xbb3c0aa6	-0.002869287
113	0x3e553999	0.20822753
114	0x3e9cc363	0.30617818
115	0xbd892f6a	-0.06698497
116	0xbee8657f	-0.45389935
117	0x3d97116f	0.07376372
118	0x3c821c4d	0.015882635
119	0x3d9dda4f	0.07707655
120	0xbcac81ed	-0.021058047
121	0x3e10cf46	0.14141569
122	0x3dcebc8a	0.10094555
123	0xbe7b6bc5	-0.2455283
124	0xbedf2860	-0.4358549
125	0x3e6bc154	0.23022968
126	0xbef3213e	-0.474863
127	0xbc18696e	-0.00930248
128	0x3ebd5dc9	0.36985615
129	0xbe2574de	-0.16157863
130	0x3ec15ba8	0.3776524
131	0x3eb2505a	0.34826928
132	0xbdcf5c7e	-0.10125063
133	0x3e36fea4	0.17870575
134	0xbe58285d	-0.21109147
135	0x3e15147b	0.14558594
136	0x3ed64490	0.41849184
137	0x3e28ac97	0.16472088
138	0xbe6f2f18	-0.23357809
139	0x3e3494b0	0.17634845
140	0xbcad507b	-0.02115654
141	0x3e693ca1	0.22777034
142	0xbdd270fb	-0.102754556
143	0xbd27086f	-0.040779527
144	0xbe071517	-0.13191639
145	0xbe3f62f1	-0.18690087
146	0xbed8f113	-0.42371425
147	0xbd0d287a	-0.03446243
148	0xbd91adae	-0.07113205
149	0x3ddc3ea1	0.10754133
150	0x3dcac660	0.09901118
151	0xbdcca831	-0.099930175
152	0x3edab420	0.4271555
153	0x3e649282	0.22321513
154	0x3f13c975	0.57729274
155	0x3c29a42a	0.010354081
156	0xbdb76356	-0.08954494
157	0xbe4a927d	-0.19782443
158	0x3ea4a5b8	0.32157683
159	0x3ec6eedc	0.3885411
160	0x3ebfcbb5	0.37460104
161	0xbdadf4a5	-0.08493928
162	0xbbf0d059	-0.0073490557
163	0xbdfaee4b	-0.12252482
164	0x3e6f73e0	0.23384047
165	0x3dc1bf62	0.094603315
166	0xbcb209eb	-0.021733245
167	0xbe1ad966	-0.15121993
168	0xbb5c7ca3	-0.0033643625
169	0xbe1898b1	-0.14901997
170	0x3e4f1275	0.20221885
171	0x3dda2e15	0.10653321
172	0x3e6bddad	0.23033781
173	0xbd93f863	-0.072251104
174	0x3eecf69d	0.462819
175	0x3eca49ea	0.39509517
176	0x3e952e89	0.29137066
177	0x3db04d36	0.08608477
178	0x3cddd35a	0.02707832
179	0xbe15f873	-0.14645557
180	0x3df8bb5c	0.12145111
181	0x3e155884	0.14584547
182	0x3ebaa734	0.3645569
183	0xbc8d4e0e	-0.017249133
184	0xbea2ab0c	-0.31771123
185	0xbd70cfce	-0.058791928
186	0xbd55c891	-0.05219323
187	0xbe2691e3	-0.16266589
188	0x3e1c0945	0.15237911
189	0x3d3b2345	0.045687933
190	0xbe876917	-0.26447365
191	0xbdb9fec7	-0.09081798
192	0x3e3ca934	0.18423921
193	0x3de690a1	0.112580545
194	0xbf12d2ba	-0.57352793
195	0x3c91db08	0.017804638
196	0xbcadbd40	-0.021208405
197	0xbe4633d9	-0.19355716
198	0xbda3eac1	-0.0800376
199	0x3c888680	0.016665697
200	0x3c8be212	0.017075572
201	0xbe8f4f90	-0.2799039
202	0x3b399798	0.0028319117
203	0xbd8fc12c	-0.070192665
204	0xbc7e3d1c	-0.015517499
205	0x3dde9756	0.10868709
206	0xbde66bbb	-0.11251017
207	0x3d7b2955	0.061318714
208	0x3e9a2283	0.30104455
209	0xbe26b803	-0.16281132
210	0x3b466b59	0.0030276387
211	0xbae4871d	-0.0017435286
212	0x3ee3c437	0.44485638
213	0x3e3bb68a	0.18331352
214	0xbecd515d	-0.40101138
215	0xbdb13ad3	-0.08653798
216	0xbe2f4877	-0.17117487
217	0x3e6152c9	0.22004236
218	0xbd7f94a7	-0.062397625
219	0xbbd434b6	-0.00647601
220	0xbe21a7c6	-0.15786657
221	0x3e8bd6e6	0.27312392
222	0xbec01fa0	-0.37524128
223	0x3e45ac36	0.19303975
224	0x3debc476	0.11512081
225	0x3e1acf06	0.15118036
226	0x3e5adf27	0.21374188
227	0xbe82eb2c	-0.25570047
228	0x3d097cff	0.03356647
229	0x3de90be4	0.11379221
230	0xbe539c25	-0.20665033
231	0xbc8bdbd7	-0.017072601
232	0x3e05ee8b	0.13079278
233	0x3eb631b2	0.3558479
234	0x3d8d7240	0.06906557
235	0x3e49d2a9	0.19709267
236	0x3d4e7be3	0.050411116
237	0xbd311c25	-0.04323973
238	0xbe9fd3af	-0.3121619
239	0x3b3d1042	0.0028848802
240	0xbdec97f3	-0.115524195
241	0xbea5972d	-0.323419
242	0xbdfaf456	-0.12253635
243	0x3e01d535	0.12678988
244	0x3ea1922c	0.31556833
245	0xbe2b1f9d	-0.16711278
246	0xbeb0be72	-0.34520298
247	0xbedcbd33	-0.43113098
248	0x3e76a1bd	0.24085136
249	0xbe8f2c85	-0.27963653
250	0x3ce16928	0.027515963
251	0x3df6e2d1	0.120549805
252	0xbea94dd2	-0.33067185
253	0x3e8b0cb6	0.27158135
254	0xbedb4c26	-0.42831534
255	0x3e311c04	0.17295843

fc2.bias f4 [10]
0	0xbe24b1d9	-0.16083468
1	0x3d6d01a5	0.057862896
2	0x3e170c6a	0.1475083
3	0x3e0fd53a	0.14046183
4	0x3e4420e7	0.19153176
5	0x3cf90de1	0.030402126
6	0x3a21fd4f	0.00061794085
7	0x3e8f79b0	0.28022528
8	0xbd39912f	-0.045304473
9	0x3c68e23b	0.014214094

fc3.weight f4 [4, 10]
0	0xbcbcffa6	-0.023071121
1	0x3da87495	0.08225361
2	0xbe494915	-0.19656785
3	0xbdaa4831	-0.08314551
4	0x3eb478a9	0.35248306
5	0xbe832fd4	-0.25622427
6	0xbd987bf6	-0.07445519
7	0x3c881a9b	0.016614249
8	0x3d26f95e	0.04076516
9	0xbed1647f	-0.40896985
10	0x3dbda04b	0.09259089
11	0x3c34a2c1	0.011025132
12	0x3cc5574b	0.024089476
13	0xbd7e8d70	-0.062146604
14	0x3ea67b09	0.32515743
15	0x3b0123a7	0.0019705088
16	0xbcdc1b85	-0.026868591
17	0x3a9c0221	0.001190249
18	0xbc1c57f8	-0.009542458
19	0x3d1fdd8c	0.039029643
20	0xbe5f7732	-0.21822813
21	0x3eb94bd2	0.3619066
22	0xbdb318a4	-0.08744934
23	0xbe01e0e5	-0.12683447
24	0x3e5b88f5	0.21438964
25	0x3dfec692	0.12440218
26	0x3f00989c	0.50232863
27	0x3e0d10f8	0.13776004
28	0x3d9f4d6c	0.07778439
29	0x3e3cfca6	0.18455753
30	0x3e554556	0.20827231
31	0x3e712817	0.2355045
32	0x3e11e895	0.14248879
33	0xbe2cb785	-0.16866882
34	0x3e1aa152	0.15100601
35	0x3e230392	0.1591933
36	0xbe077871	-0.13229539
37	0x3ebc26aa	0.36748248
38	0xbca02611	-0.019549401
39	0x3e283cfe	0.16429517

fc3.bias f4 [4]
0	0x3e6db9fc	0.23215479
1	0x3dd92a22	0.10603739
2	0x3d902ae3	0.0703943
3	0x3dffbc5e	0.124871
